============================================================================================================================================
Layer (type (var_name))                  Input Shape               Output Shape              Param #                   Mult-Adds
============================================================================================================================================
CRNN (CRNN)                              [32, 1, 32, 256]          [65, 32, 2243]            --                        --
├─Sequential (cnn)                       [32, 1, 32, 256]          [32, 512, 1, 65]          --                        --
│    └─Conv2d (0)                        [32, 1, 32, 256]          [32, 64, 32, 256]         640                       167,772,160
│    └─ReLU (1)                          [32, 64, 32, 256]         [32, 64, 32, 256]         --                        --
│    └─MaxPool2d (2)                     [32, 64, 32, 256]         [32, 64, 16, 128]         --                        --
│    └─Conv2d (3)                        [32, 64, 16, 128]         [32, 128, 16, 128]        73,856                    4,840,226,816
│    └─ReLU (4)                          [32, 128, 16, 128]        [32, 128, 16, 128]        --                        --
│    └─MaxPool2d (5)                     [32, 128, 16, 128]        [32, 128, 8, 64]          --                        --
│    └─Conv2d (6)                        [32, 128, 8, 64]          [32, 256, 8, 64]          295,168                   4,836,032,512
│    └─BatchNorm2d (7)                   [32, 256, 8, 64]          [32, 256, 8, 64]          512                       16,384
│    └─ReLU (8)                          [32, 256, 8, 64]          [32, 256, 8, 64]          --                        --
│    └─Conv2d (9)                        [32, 256, 8, 64]          [32, 256, 8, 64]          590,080                   9,667,870,720
│    └─ReLU (10)                         [32, 256, 8, 64]          [32, 256, 8, 64]          --                        --
│    └─MaxPool2d (11)                    [32, 256, 8, 64]          [32, 256, 4, 65]          --                        --
│    └─Conv2d (12)                       [32, 256, 4, 65]          [32, 512, 4, 65]          1,180,160                 9,818,931,200
│    └─BatchNorm2d (13)                  [32, 512, 4, 65]          [32, 512, 4, 65]          1,024                     32,768
│    └─ReLU (14)                         [32, 512, 4, 65]          [32, 512, 4, 65]          --                        --
│    └─Conv2d (15)                       [32, 512, 4, 65]          [32, 512, 4, 65]          2,359,808                 19,633,602,560
│    └─ReLU (16)                         [32, 512, 4, 65]          [32, 512, 4, 65]          --                        --
│    └─MaxPool2d (17)                    [32, 512, 4, 65]          [32, 512, 2, 66]          --                        --
│    └─Conv2d (18)                       [32, 512, 2, 66]          [32, 512, 1, 65]          1,049,088                 2,182,103,040
│    └─BatchNorm2d (19)                  [32, 512, 1, 65]          [32, 512, 1, 65]          1,024                     32,768
│    └─ReLU (20)                         [32, 512, 1, 65]          [32, 512, 1, 65]          --                        --
├─Sequential (rnn)                       [65, 32, 512]             [65, 32, 2243]            --                        --
│    └─BidirectionalLSTM (0)             [65, 32, 512]             [65, 32, 256]             --                        --
│    │    └─LSTM (rnn)                   [65, 32, 512]             [65, 32, 512]             1,576,960                 3,280,076,800
│    │    └─Linear (embedding)           [2080, 512]               [2080, 256]               131,328                   273,162,240
│    └─BidirectionalLSTM (1)             [65, 32, 256]             [65, 32, 2243]            --                        --
│    │    └─LSTM (rnn)                   [65, 32, 256]             [65, 32, 512]             1,052,672                 2,189,557,760
│    │    └─Linear (embedding)           [2080, 512]               [2080, 2243]              1,150,659                 2,393,370,720
============================================================================================================================================
Total params: 9,462,979
Trainable params: 9,462,979
Non-trainable params: 0
Total mult-adds (G): 59.28
============================================================================================================================================
…
